logs/a1_amp_example/exported/policies/policy_1.pt (torch, 762312 bytes, 8 tensors)

weight f4 [512, 42]
0	0xbe61f932	-0.22067717
1	0x3ca6bb38	0.020352945
2	0xbc8b3268	-0.016991809
3	0xbd051e9a	-0.032499887
4	0xbd876fda	-0.06613131
5	0x3d9f62a9	0.0778249
6	0xbd65fa25	-0.05614676
7	0xbda27d5c	-0.07934067
8	0x3ddb6c55	0.10714022
9	0xbea7619d	-0.3269166
10	0xbe9ffa1a	-0.312455
11	0x3d852e54	0.06502977
12	0xbd07fa88	-0.03319791
13	0x3dc59f38	0.09649509
14	0xbdec86ae	-0.115491256
15	0xbd42d392	-0.04756505
16	0x3e8efc25	0.27926746
17	0x3e90c0ec	0.28272188
18	0x3dcd0193	0.10010066
19	0x3e29cc7e	0.16581914
20	0x3e35e74f	0.17764018
21	0x3bcacd22	0.0061890045
22	0xbc9db806	-0.019252788
23	0xbd2f2a66	-0.042765044
24	0xbe1c9e61	-0.15294792
25	0x3c688448	0.014191695
26	0xbdf99e86	-0.12188439
27	0x3f026bc7	0.50945705
28	0x3e7c4eeb	0.2463948
29	0xbe918293	-0.28419933
30	0xbcabd36b	-0.020974835
31	0xbd3df558	-0.046376556
32	0x3da97951	0.082750924
33	0xbcb37cb6	-0.021910053
34	0x3d582a8a	0.052774943
35	0xbdad6fe2	-0.084686056
36	0x3d0bd28f	0.03413635
37	0x3d6e5262	0.058184035
38	0xbda9c27b	-0.08289047
39	0xbd58ae64	-0.052900687
40	0x3ca470cf	0.020073323
41	0xbd6c35e0	-0.057668567
42	0xbea3bf5e	-0.3198194
43	0xbe092c90	-0.13395905
44	0x3de17692	0.110089436
45	0x3e2119b5	0.15732463
46	0x3ea799e0	0.32734585
47	0x3e71ba82	0.23606303
48	0x3e5a9fea	0.21350065
49	0xbea4de0b	-0.32200655
50	0x3de98e45	0.11404089
51	0x3eaf666b	0.34257826
52	0x3d9d1dd1	0.07671703
53	0x3d25e18c	0.0404983
54	0xbe1d46c5	-0.15359028
55	0x3c8c0f55	0.017097155
56	0x3d8dfde3	0.06933191
57	0xbe451c0e	-0.19248983
58	0xbdf67d3d	-0.12035606
59	0xbd985b42	-0.07439281
60	0xbca87e7a	-0.020568121
61	0xbd4b165c	-0.04958187
62	0xbdabdfc4	-0.08392289
63	0x3ce36882	0.027759794
64	0xbd746cb7	-0.05967399
65	0x3e271f96	0.16320643
66	0xbe9afab7	-0.30269405
67	0x3eb2d15c	0.34925354
68	0x3e4939cc	0.19650954
69	0x3e187c32	0.14891127
70	0x3dc173d3	0.0944592
71	0xbd3fa814	-0.04679115
72	0x3c301e87	0.010749466
73	0x3ddc45d3	0.107555054
74	0xbe01f21b	-0.12690012
75	0xbe185ffe	-0.14880368
76	0x3d874e4d	0.066067316
77	0xbc0d5ca0	-0.008628041
78	0x3c0d1acc	0.008612346
79	0xbdd6732f	-0.10471188
80	0xbd29f64d	-0.041494656
81	0xbe08912f	-0.13336633
82	0xbd2fc602	-0.042913444
83	0x3c3a4900	0.011369944
84	0x3c8e94d8	0.017404959
85	0x3eb93fb5	0.36181417
86	0x3db65fbb	0.08904978
87	0xbdb3b95f	-0.08775591
88	0x3e1cc185	0.15308197
89	0xbe30790f	-0.1723368
90	0x3d990ce6	0.07473163
91	0xbe0390bc	-0.1284818
92	0xbe44b097	-0.19207989
93	0x3eaf579f	0.34246537
94	0xbe0fec8e	-0.14055082
95	0x3d83812a	0.064211205
96	0xbe74c8c1	-0.23904707
97	0x3e58bcb1	0.2116573
98	0x3e5f574f	0.2181065
99	0xbe6ad340	-0.22932148
100	0xbe390065	-0.18066557
101	0xbe81a1f3	-0.2531887
102	0x3de9c7a1	0.11415029
103	0xbe979410	-0.2960515
104	0x3e070f3d	0.13189407
105	0x3e36357a	0.17793837
106	0xbd50ac1a	-0.05094538
107	0x3eba5ed7	0.36400482
108	0xbc2a79f8	-0.010405056
109	0x3e1c99bd	0.15293022
110	0xbd959fd9	-0.07305879
111	0x3e10cafc	0.14139932
112	0x3dcdb0e6	0.10043506
113	0xbe0cd254	-0.13752109
114	0x3d259b31	0.040431205
115	0xbda3cacd	-0.079976656
116	0xbbc81605	-0.0061061406
117	0x3e188847	0.14895736
118	0x3c8d7a0e	0.017270114
119	0x3e191d23	0.14952521
120	0x3d53b91f	0.051690217
121	0x3c98ddab	0.018660387
122	0x3db8690f	0.09004413
123	0x3dbd9eac	0.0925878
124	0x3c6d2433	0.014473963
125	0xbe147c8f	-0.1450064
126	0x3e075311	0.13215281
127	0xbe944bde	-0.28964132
128	0x3b6d19ec	0.003617878
129	0xbcf23446	-0.029565942
130	0x3d8b9873	0.06816187
131	0xbd85dc6f	-0.06536185
132	0xbd8da5b1	-0.06916369
133	0x3e4c245d	0.19935746
134	0xbda6c4d6	-0.08143012
135	0x3e4cc694	0.19997627
136	0x3dba7bc9	0.091056414
137	0x3e09c92c	0.13455647
138	0xbee5864a	-0.44829017
139	0x3cf98456	0.03045861
140	0xbde050e7	-0.10952931
141	0x3e107196	0.1410583
142	0x3b1d9f11	0.002405111
143	0x3e9c4a94	0.3052565
144	0x3e28f733	0.16500549
145	0xbcc2752a	-0.023737509
146	0xbdc109cb	-0.09425696
147	0x3db6512b	0.089022
148	0x3e218faa	0.1577746
149	0xbe1fff07	-0.15624629
150	0xbccbff42	-0.02490199
151	0x3cb7d681	0.02244115
152	0x3e466a04	0.19376379
153	0xbdd8fc06	-0.10594945
154	0x3d9b4a01	0.075824745
155	0xbe098a6a	-0.13431707
156	0xbbd64182	-0.006538571
157	0x3be7c3d7	0.0070729065
158	0x3cc20ebe	0.02368867
159	0x3daf7c70	0.085686564
160	0x3b96439a	0.0045856955
161	0x3d9efd89	0.07763202
162	0xbde51110	-0.11184895
163	0xbd4f4ab4	-0.05060835
164	0x3da0794f	0.07835638
165	0xbcbe0412	-0.0231953
166	0xbcb95085	-0.022621403
167	0x3cdab9de	0.026699957
168	0x3e8eef64	0.27917016
169	0x3dccdbf6	0.10002892
170	0xbd8efe25	-0.06982068
171	0xbdc4dcb9	-0.09612412
172	0x3cbf639b	0.023362925
173	0x3dcdcd2c	0.10048899
174	0xbea7fba5	-0.32809177
175	0x3ea81ee7	0.32836077
176	0xbd68025f	-0.056642886
177	0xbdb34578	-0.087534845
178	0xbd7c07e6	-0.06153097
179	0xbd99a7fb	-0.07502743
180	0x3e3980bd	0.18115516
181	0xbcd5de31	-0.026106926
182	0xbcd6ab2d	-0.02620467
183	0xbea177f8	-0.3153684
184	0x3e570609	0.20998396
185	0x3ed08e30	0.4073348
186	0x3dddc8c4	0.10829309
187	0xbe7e6853	-0.24844484
188	0x3e3e2c99	0.185717
189	0x3d2ff7f2	0.04296107
190	0xbe1b2efb	-0.1515464
191	0x3e3f718b	0.18695657
192	0x3e35dba4	0.17759567
193	0x3d6ffee5	0.058592696
194	0xbddd253f	-0.1079812
195	0xbe2809f6	-0.1641005
196	0x3cef52ce	0.029214289
197	0xbd9647d0	-0.07337916
198	0xbd875fea	-0.06610091
199	0xbc89d025	-0.016822884
200	0x3d78e2d9	0.060763214
201	0xbd633bde	-0.055477016
202	0xbccfab1b	-0.025350144
203	0x3dcc2d17	0.09969538
204	0x3d86aeb6	0.06576292
205	0x3d5e8451	0.054325406
206	0xbd5e9284	-0.054338947
207	0xbde65208	-0.11246115
208	0x3dcbd0e8	0.09951955
209	0xbb7dc442	-0.0038721715
210	0x3e6d2cde	0.23161647
211	0xbeefc40c	-0.4682926
212	0xbd8a4a2a	-0.06752427
213	0xbde09492	-0.109658375
214	0x3bd71918	0.0065642707
215	0x3e1e9d37	0.1548966
216	0xbe41ba0a	-0.18918625
217	0x3d98a79a	0.074538425
218	0xbcdd9728	-0.027049616
219	0x3e6dd197	0.23224483
220	0x3e10a1c3	0.14124207
221	0xbe5fe306	-0.21863946
222	0xbdee24e2	-0.116281286
223	0x3e95423a	0.2915209
224	0xbbd50f81	-0.0065020924
225	0x3dbead03	0.09310343
226	0x3e12e1a9	0.14343895
227	0x3dbdbdf3	0.092647456
228	0x3e087bf0	0.13328528
229	0x3ecb72b1	0.3973594
230	0x3ccde131	0.025131794
231	0xbe5861cc	-0.21131057
232	0x3d49f20c	0.0493031
233	0xbe8947fd	-0.26812735
234	0x3d2202b2	0.03955335
235	0x3d9f9bc1	0.077933796
236	0x3e64d537	0.2234696
237	0xbe310ab4	-0.17289239
238	0x3dfb1e85	0.122616805
239	0xbdb315ea	-0.08744414
240	0xbdb8d8e8	-0.090257466
241	0xbc99ada2	-0.018759552
242	0x3d32a310	0.04361254
243	0x3cf1262c	0.029437147
244	0x3d7ef604	0.062246338
245	0x3d9da4d8	0.07697457
246	0x3d721040	0.05909753
247	0x3e08ae72	0.13347796
248	0x3e13b837	0.14425741
249	0x3c5342ba	0.012894327
250	0xbd5fe646	-0.054662965
251	0xbd9714b5	-0.073769964
252	0x3e35f885	0.17770584
253	0x3e52618d	0.20545025
254	0x3d98deb5	0.07464353
255	0xbc535d91	-0.012900726

bias f4 [512]
0	0x3e0dc70f	0.13845466
1	0xbd9356c3	-0.07194283
2	0xbde528ba	-0.111894086
3	0x3ce832c7	0.028344525
4	0x3db96f2d	0.09054408
5	0x3ceb182a	0.028698046
6	0x3e28597f	0.1644039
7	0x3db41a30	0.08794057
8	0xbd87d034	-0.066315085
9	0xbd60f06a	-0.054916777
10	0xbce23f6d	-0.027618134
11	0x3b0b742b	0.0021278958
12	0xbb9ece79	-0.004846391
13	0xbd7b6bae	-0.06138199
14	0x3d9702b2	0.07373561
15	0xbd5e72d3	-0.054308724
16	0xbc3f0c5a	-0.01166066
17	0xbd512fa0	-0.05107081
18	0xbe056569	-0.13026966
19	0x3d9be58b	0.07612141
20	0x3e027964	0.1274162
21	0xbc18724f	-0.009304597
22	0xbdf7c5aa	-0.12098248
23	0xbdedcfc6	-0.11611895
24	0xbd4ec72a	-0.050482906
25	0x3db6bdd2	0.08922924
26	0xbdbe17a8	-0.09281856
27	0xbe085519	-0.13313712
28	0x3c10b849	0.0088329995
29	0x3d68f120	0.05687058
30	0xbdb111b9	-0.086459585
31	0x3d980d14	0.074243695
32	0xbe34d97d	-0.1766109
33	0xbccdfbae	-0.025144424
34	0xbcd968ca	-0.026539225
35	0xbe1c6bd7	-0.15275513
36	0x3da7b141	0.081881054
37	0x3d7d91bb	0.061906558
38	0xbc67c0f3	-0.014145124
39	0xbbb6b8d5	-0.005576233
40	0xbdabf70a	-0.08396728
41	0x3db0cf76	0.0863332
42	0x3cc64e80	0.024207354
43	0x3c4f8e2a	0.012668172
44	0xbd868881	-0.06569005
45	0xbda4bf64	-0.08044317
46	0xbe0f81dc	-0.14014381
47	0xbd6d0d4e	-0.057874016
48	0xbd9f9365	-0.07791785
49	0x3c9da15c	0.019241981
50	0xbcc41d7f	-0.023939846
51	0xbe20f9a2	-0.15720227
52	0xbe23cbb4	-0.15995675
53	0x3d8685e7	0.065685086
54	0x3da4a4dc	0.08039257
55	0xbc48eb37	-0.012263111
56	0x3c3dd411	0.011586205
57	0xbd2a18b4	-0.041527465
58	0x3e035617	0.1282581
59	0x3dbcc85c	0.09217903
60	0x3d0ca279	0.034334633
61	0x3dcec162	0.100954786
62	0xbdb2bd0a	-0.087274626
63	0xbced948f	-0.029001502
64	0xbd56e8cf	-0.052468117
65	0xbce96807	-0.028491987
66	0xbd8e5e56	-0.06951587
67	0xbd75263c	-0.059850916
68	0xbe3dd805	-0.18539436
69	0x3de15227	0.110019974
70	0xbe46a791	-0.19399859
71	0xbcd17391	-0.025567802
72	0x3dbf3d3a	0.0933785
73	0xbe30419a	-0.17212525
74	0xbd0e5c95	-0.03475626
75	0xbcb5807f	-0.022155998
76	0xbe013dc9	-0.12621225
77	0x3e17f1f1	0.14838387
78	0xbcb6084a	-0.02222075
79	0x3de9c25a	0.11414023
80	0xbdfb83f2	-0.12281026
81	0xbd7591a9	-0.059953365
82	0xbd863ff2	-0.06555165
83	0xbd3043d4	-0.043033436
84	0x3c7aa7c2	0.015298786
85	0xbd85fc19	-0.065422244
86	0x3d36a66a	0.0445923
87	0x3ca23e84	0.0198052
88	0x3de15286	0.11002068
89	0x3cc0e9e5	0.02354903
90	0x3e108bdd	0.14115854
91	0x3ca8d322	0.020608488
92	0x3d46ac1c	0.04850398
93	0xbdd395c1	-0.10331298
94	0xbd6fbe49	-0.05853108
95	0x3dd207c2	0.10255386
96	0xbc0ec0c4	-0.008712951
97	0xbbd41e16	-0.006473313
98	0xbd4cc2d4	-0.04999049
99	0xbb82ed96	-0.0039956076
100	0x3dd816cd	0.10551224
101	0x3d7bc632	0.06146831
102	0xbe03fa7b	-0.1288852
103	0xbd9995cb	-0.07499274
104	0xbc51e59b	-0.01281109
105	0xbdd0129a	-0.10159798
106	0xbe12289e	-0.14273307
107	0x3d9b3e80	0.0758028
108	0xbe4a5ea1	-0.1976266
109	0xbe529e58	-0.20568216
110	0x3dff0065	0.12451247
111	0x3e01e848	0.12686265
112	0xbe22e281	-0.15906717
113	0x3d7d990a	0.061913528
114	0xbd158476	-0.036503278
115	0x3dc8b292	0.097996846
116	0xbda31822	-0.07963587
117	0xbe0360eb	-0.1282994
118	0x3c98f009	0.018669145
119	0x3d9285d1	0.0715443
120	0xbe0cb2d1	-0.13740088
121	0x3d085f5e	0.033294074
122	0x3d1bf5e2	0.03807629
123	0x3bb5ec64	0.0055518616
124	0xbdbc4860	-0.09193492
125	0xbe631804	-0.2217713
126	0xbcd6ee31	-0.026236625
127	0x3bb5fdb3	0.005553925
128	0xbc006398	-0.007836245
129	0xbce28be7	-0.027654601
130	0xbe15fbda	-0.14646855
131	0x3c154a94	0.009112019
132	0xbd1d31b4	-0.03837748
133	0xbdde555f	-0.10856127
134	0xbde27b7a	-0.110587075
135	0xbdcb9248	-0.0994001
136	0x3c9d3eaf	0.019194929
137	0x3d1d3589	0.038381133
138	0xbd54b3a0	-0.051929116
139	0x3d90243c	0.07038161
140	0x3e0ffc35	0.14061053
141	0xbe340e6c	-0.17583627
142	0xbd0b1ab2	-0.033961006
143	0xbdc8f465	-0.098122396
144	0xbe3fa374	-0.18714696
145	0x3da67d2f	0.081293456
146	0x3dac4208	0.08411032
147	0x3cdb370c	0.026759647
148	0xbd4f9779	-0.050681565
149	0x3d8bb208	0.06821066
150	0x3df24546	0.11829619
151	0x3def68ba	0.11689897
152	0x3d86a816	0.065750286
153	0xbda6a0ac	-0.081361145
154	0xbdb184a7	-0.086678796
155	0xbdc727e5	-0.09724406
156	0xbde2ff11	-0.11083806
157	0xbcb716d6	-0.022349756
158	0xbd71bfe5	-0.059020896
159	0x3e13033a	0.143567
160	0xbdb4656e	-0.08808409
161	0xbe1c5031	-0.15264966
162	0x3e32bacd	0.17454071
163	0xbdbff7de	-0.09373449
164	0x3d5640f6	0.052308045
165	0x3cfedd5a	0.031111408
166	0xbdac4fdd	-0.0841367
167	0x3ddb3416	0.10703294
168	0x3d16e9e4	0.03684415
169	0xbdcbab84	-0.099448234
170	0x3d5ddd0a	0.054165877
171	0xbccb7161	-0.024834337
172	0x3d9e7492	0.07737078
173	0xbda3bd41	-0.07995082
174	0x3d6f3247	0.058397558
175	0x3d8e74c9	0.06955869
176	0xbd8d83fb	-0.06909939
177	0xbe13cabe	-0.14432809
178	0xbe2896f9	-0.16463841
179	0x3d9e3a8c	0.07726011
180	0xbd4e197e	-0.05031728
181	0x3ba93ec0	0.005164951
182	0x3d856262	0.06512906
183	0xbab09cba	-0.0013474443
184	0xbdfe1e9e	-0.124081835
185	0x3d8466df	0.064649336
186	0xbe654f8b	-0.22393624
187	0x3d050457	0.032474842
188	0x3d65b2df	0.056078788
189	0x3e281ac6	0.16416463
190	0x3d8e92e6	0.069616124
191	0xbc9d3eee	-0.019195046
192	0xbd10cb69	-0.035350237
193	0xbd9df368	-0.07712442
194	0xbdfa7785	-0.12229828
195	0xbdd788a8	-0.10524112
196	0x3dd4f241	0.10397769
197	0xbd88e4d9	-0.06684274
198	0xbd811b10	-0.0630399
199	0xbdd16be1	-0.102256544
200	0xbd4d9f8c	-0.050200984
201	0x3d956a40	0.07295656
202	0xbc95844d	-0.018251562
203	0x3dc47e47	0.09594398
204	0xbe18cc9e	-0.14921805
205	0x3d6ce5bc	0.05783628
206	0x3e11e0f4	0.14245969
207	0xbd527ac1	-0.0513866
208	0x3d23c2b8	0.03998062
209	0xbd2a102b	-0.041519325
210	0xbe2dbf56	-0.1696752
211	0xbe154980	-0.1457882
212	0xbe0763e6	-0.13221702
213	0x3d9cefb6	0.07662909
214	0x3dc45fa4	0.095885545
215	0x3c858969	0.016300874
216	0xbd33b135	-0.04387017
217	0x3daf8dca	0.08571966
218	0xbe148b10	-0.14506173
219	0x3d2180bb	0.039429408
220	0x3d092a1a	0.033487417
221	0xbdeeb126	-0.11654882
222	0x3dcecf18	0.10098094
223	0x3d789184	0.06068565
224	0xbdd4fa3a	-0.103992894
225	0xbe0b9e24	-0.13634545
226	0xbd902932	-0.070391074
227	0xbe403a6f	-0.1877229
228	0xbad0e685	-0.0015937841
229	0xbda886ce	-0.08228837
230	0xbe1c77af	-0.1528003
231	0x3e2993f4	0.16560346
232	0x3d48df4e	0.049041085
233	0xbe0e15d5	-0.13875516
234	0x3de06011	0.10955823
235	0xbd7f80ac	-0.06237857
236	0xbd5493bd	-0.051898707
237	0xbe248ea4	-0.16070038
238	0x3c8a7380	0.016900778
239	0xbdae9a0a	-0.08525474
240	0x3cb5904f	0.022163538
241	0x3ced468d	0.028964305
242	0x3bd21f70	0.006412439
243	0x3c8ff639	0.017573463
244	0x3d825b39	0.063650556
245	0xbdb2486f	-0.08705222
246	0x3db01383	0.085974716
247	0xbd568420	-0.052372098
248	0xbde8c65f	-0.11365961
249	0xbd0289a8	-0.03186956
250	0xbde7c52d	-0.11316905
251	0xbe0a1742	-0.13485435
252	0x3d95d415	0.07315842
253	0x3b896bc9	0.004193757
254	0x3b5e9285	0.0033961844
255	0x3d80c25f	0.06287073

weight f4 [256, 512]
0	0xbbdc9fac	-0.0067329016
1	0x3c75f8f6	0.01501297
2	0xbda516f5	-0.08061019
3	0xbce69b03	-0.028150087
4	0xba96bf2c	-0.0011501065
5	0x3dd4b671	0.103863604
6	0x3e1abba4	0.15110642
7	0xbdf5612d	-0.119814254
8	0xbdef00b9	-0.1167006
9	0x3dcd74b5	0.10032026
10	0x3d547a8b	0.05187468
11	0x3d71f8c9	0.05907515
12	0x3e17eef1	0.14837243
13	0x3d46848d	0.048466254
14	0xbdc06040	-0.09393358
15	0x3ce71b83	0.02821136
16	0xbc033253	-0.008007604
17	0x3d2c5ceb	0.0420808
18	0xbdfd579f	-0.12370228
19	0xbd02ad1f	-0.031903382
20	0xbe3f053e	-0.18654343
21	0xbd3fcfdb	-0.046829086
22	0xbccb3a1a	-0.024807978
23	0x3e376598	0.17909849
24	0x3d928cb9	0.07155747
25	0xbdce2e04	-0.100673705
26	0xbd1a8bec	-0.037731096
27	0xbc14f79a	-0.009092236
28	0xbd7ba51d	-0.06143676
29	0xbda50299	-0.08057136
30	0xbbae6379	-0.0053219167
31	0xbe08a328	-0.13343489
32	0x3ccda0f6	0.025101166
33	0x3d43369f	0.047659513
34	0x3da77f23	0.08178546
35	0x3e3926a0	0.1808114
36	0x3c3db608	0.011579044
37	0xbd1734a8	-0.03691545
38	0x3da26a63	0.07930448
39	0xbe2544e5	-0.16139562
40	0x3ceb4f07	0.028724207
41	0x3d2e4d09	0.042553935
42	0xbdff9b8c	-0.1248084
43	0x3e5e2c84	0.21696669
44	0xbd233a11	-0.0398503
45	0x3c7ce574	0.015435565
46	0xbdb1d85c	-0.086838454
47	0x3db922e9	0.09039862
48	0xbcb98a69	-0.022649007
49	0xbc344ff2	-0.011005389
50	0x3c8de44c	0.017320774
51	0xbc9f7848	-0.019466534
52	0x3e19037c	0.14942735
53	0x3dc162a5	0.09442643
54	0xbcc81b1f	-0.024426995
55	0xbc382b41	-0.011240781
56	0x3c4ea24c	0.012611937
57	0x3cf941fc	0.030426972
58	0xbb1d81fa	-0.002403377
59	0xb70f95ce	-8.558343e-06
60	0xbcbdbb46	-0.023160588
61	0xbc76de88	-0.015067704
62	0x3ccf36e0	0.025294721
63	0x3d129759	0.035788868
64	0x3e086898	0.1332115
65	0xb9a94934	-0.00032288732
66	0xbdf2bd61	-0.118525274
67	0xbc24a5a2	-0.010049256
68	0xbded0053	-0.115723275
69	0xbe7c4e0f	-0.24639152
70	0xbca4cb03	-0.020116335
71	0xbd618412	-0.055057593
72	0xbcda496d	-0.02664634
73	0x3d276cad	0.040875126
74	0xbdecaf22	-0.115568414
75	0xbb528b24	-0.0032126391
76	0x3d065332	0.032794185
77	0x3d2abf76	0.041686498
78	0x3c0bfe6b	0.008544545
79	0x3d43ee25	0.047834534
80	0xbd0c4b4b	-0.034251492
81	0x3b22d469	0.0024845845
82	0xbdaa13b9	-0.08304543
83	0x3db5f737	0.08885043
84	0xbdac6453	-0.08417573
85	0x3d0a6fd1	0.033798043
86	0xbd1f8da7	-0.03895345
87	0x3dbfbe50	0.09362471
88	0x3d406040	0.04696679
89	0xbc1c546c	-0.009541612
90	0xbdac98d7	-0.084275894
91	0x3dd387b6	0.10328619
92	0x3d93648b	0.071969114
93	0xbb429ee2	-0.0029696752
94	0x3cc7e599	0.024401473
95	0x3d910ff0	0.07083118
96	0xbd140e61	-0.036146525
97	0x3de1794a	0.11009462
98	0x3e6221db	0.22083227
99	0xbddb83a0	-0.10718465
100	0xbd869d7d	-0.06573007
101	0xbb50e36a	-0.003187383
102	0x3d01f56d	0.031728197
103	0x3defe2da	0.117131904
104	0xbd1ab3ed	-0.037769247
105	0xbd22eeca	-0.03977851
106	0xbd3465da	-0.044042446
107	0xbb69e6e1	-0.0035690593
108	0xbd7a8bef	-0.061168607
109	0xbcdf4a15	-0.027257005
110	0x3d4cf4a3	0.05003799
111	0xbd5a3b00	-0.053278923
112	0xbde930ce	-0.11386262
113	0x3c4f99b6	0.012670925
114	0xbd6e9b98	-0.058253855
115	0x3d2a0ee5	0.04151811
116	0xbd5b2f0d	-0.053511668
117	0x3dbc1b31	0.09184874
118	0x3d06e385	0.032931823
119	0x3cd3da45	0.025860915
120	0x3d816c49	0.06319482
121	0x3dd441c9	0.1036411
122	0x3c9e3756	0.019313496
123	0x3e82dfef	0.25561473
124	0xbd84a347	-0.06476455
125	0x3c9bf336	0.01903687
126	0xbda5959c	-0.08085176
127	0xbd0e50f7	-0.034745183
128	0xbc24b9ff	-0.010054111
129	0x3cb4497b	0.022007694
130	0x3d279e45	0.040922422
131	0x3d8304bb	0.06397387
132	0x3ce8ae5d	0.028403455
133	0x3dce9c89	0.100884505
134	0xbbc85524	-0.006113665
135	0xbd877d4a	-0.06615694
136	0xbd08b60f	-0.03337675
137	0x3d500c42	0.05079294
138	0xbcf084f8	-0.02936028
139	0xbdf8a8a2	-0.12141539
140	0xbccd6afb	-0.025075426
141	0xbd93639d	-0.07196734
142	0x3c54b3f5	0.012982358
143	0xbd631d64	-0.05544795
144	0xbd4518a9	-0.04811922
145	0xbe0dc901	-0.13846208
146	0x3df947ae	0.12171875
147	0x3bbb13d7	0.005709152
148	0x3d3925ec	0.04520218
149	0xbd63e8ad	-0.05564182
150	0xbde1bcdf	-0.110223524
151	0xbc7d2288	-0.015450127
152	0x3cccd9d0	0.025006205
153	0xbcc4ac43	-0.024007922
154	0x3c4a9592	0.012364762
155	0x3d8cb4a5	0.06870393
156	0x3dad6995	0.08467404
157	0xbd492b37	-0.04911348
158	0xbdab6bc6	-0.083701655
159	0x3ad833fd	0.0016494986
160	0xbdda1531	-0.10648573
161	0x3c7161c1	0.014732779
162	0x3df9336e	0.121680126
163	0x3d1094c0	0.03529811
164	0x3d3ef2f0	0.046618402
165	0xbe0b3e88	-0.13598073
166	0x3b2aafd9	0.0026044755
167	0xbcddc566	-0.027071666
168	0x3d7cc96d	0.061715532
169	0xbb0bce52	-0.0021332693
170	0xbc3cb6b4	-0.011518169
171	0xbde960fd	-0.11395452
172	0xbcf00415	-0.029298821
173	0xbd8223d0	-0.06354487
174	0xbd3164ca	-0.04330901
175	0xbcd1d6ed	-0.02561518
176	0x3bf07d16	0.00733913
177	0xbd6462ff	-0.055758473
178	0x3b81a257	0.00395612
179	0xbd0d8a31	-0.034555618
180	0x3d7f0a4a	0.06226567
181	0x3dedb38d	0.11606512
182	0xbcba74d9	-0.022760795
183	0xbde8bdee	-0.11364351
184	0x3b14b4dc	0.0022690808
185	0x3d3b2b76	0.045695744
186	0xbd9f0ec2	-0.07766487
187	0x3ccff989	0.025387542
188	0x3db1a313	0.08673682
189	0x3ad64fc6	0.0016350679
190	0x3dee1414	0.11624923
191	0xbd4afe4b	-0.04955892
192	0x3d074e50	0.03303367
193	0x3c18e569	0.009332039
194	0xbe9a82d1	-0.3017793
195	0x3ceec99a	0.029148865
196	0x3de11bd1	0.10991634
197	0xbd6d5608	-0.057943374
198	0xbe301aa1	-0.17197658
199	0xbd01f5f4	-0.0317287
200	0x3ca4d186	0.02011944
201	0xbd9a5a6b	-0.07536777
202	0xbcdc7cbb	-0.026914945
203	0x3e0a03d6	0.13478026
204	0x3bde5a6f	0.006785683
205	0xbdefaf2c	-0.11703333
206	0xbd5104e5	-0.05103006
207	0x3c5a3571	0.0133184055
208	0x3cc648b0	0.024204582
209	0x3d8771b3	0.06613483
210	0x3ca289b2	0.019841049
211	0x3d1cc293	0.038271498
212	0xbdcf3ff5	-0.10119621
213	0x3ca10ed4	0.01966039
214	0xbd53d902	-0.051720627
215	0xbdc31266	-0.095249936
216	0xbd97d207	-0.074131064
217	0x3d0f51b8	0.034990042
218	0xbd1f0a9a	-0.03882847
219	0x3d24f856	0.040275894
220	0xbd4a5703	-0.049399387
221	0x3d4bb63b	0.049734335
222	0xbd972bb0	-0.073813796
223	0xbc579f3a	-0.013160521
224	0x3de0f58f	0.109843366
225	0xbd9ddf05	-0.07708553
226	0x3bd721c6	0.0065653054
227	0xbd4e1796	-0.050315462
228	0xbe0ce523	-0.13759284
229	0xbdb1b91e	-0.086778864
230	0xbd6c8344	-0.057742372
231	0x3cfbffce	0.030761626
232	0xbda673c1	-0.08127547
233	0xbc61cb5a	-0.013781393
234	0xbcf54df6	-0.029944401
235	0xbd13395c	-0.035943374
236	0x3db91de3	0.090389036
237	0xbc2594e6	-0.010106301
238	0x3c4723a9	0.012154498
239	0x3c8f2036	0.017471414
240	0xbb2344ed	-0.002491291
241	0xbd9dc3e3	-0.07703378
242	0xbc357e01	-0.011077405
243	0x3bbc8d93	0.0057541816
244	0xbd61203c	-0.05496238
245	0xbe32e8c7	-0.1747161
246	0x3db321cb	0.0874668
247	0xbdcd566c	-0.10026249
248	0x3d7c746f	0.061634477
249	0x3e4ed046	0.20196638
250	0x3dd86d10	0.10567677
251	0xbd1808c6	-0.037117742
252	0x3df6ad89	0.12044818
253	0xbd6f6cdf	-0.058453437
254	0x3e17d6bb	0.14828007
255	0x3cbc9038	0.023017988

bias f4 [256]
0	0x3bda2cd5	0.0066581764
1	0x3bd27a8d	0.0064233006
2	0xbb37ed5a	-0.0028065057
3	0xbd1fd7fa	-0.03902433
4	0xbd7bd64c	-0.061483666
5	0xbb90aac2	-0.004414887
6	0xbc5d02b9	-0.013489419
7	0xbd95e01c	-0.07318136
8	0xbbcb0e6d	-0.006196788
9	0xbd8269fa	-0.0636787
10	0xbd38648b	-0.04501776
11	0xbd334549	-0.043767247
12	0x3c928ed6	0.017890375
13	0xbd374b13	-0.04474933
14	0xbd221672	-0.039572187
15	0x3d349598	0.044087976
16	0xbd4f4934	-0.05060692
17	0x3b30b7ed	0.0026965097
18	0xbd612b9f	-0.05497324
19	0x3a7c56e1	0.0009625983
20	0x3d44efce	0.048080258
21	0x3a3ada5d	0.00071278756
22	0xbc23f77f	-0.010007738
23	0xbcacf138	-0.021111116
24	0xbda03b39	-0.07823796
25	0xbcb75249	-0.022378104
26	0xbcf5fb2e	-0.030026998
27	0xbc99e750	-0.018787056
28	0x3ce22881	0.027607204
29	0x3c6967ad	0.01424591
30	0xbd27c93b	-0.040963393
31	0xbb69ab8a	-0.0035655224
32	0xbd4d922c	-0.05018823
33	0xbd90f51c	-0.07078001
34	0xbd8147ab	-0.06312498
35	0xbd42a172	-0.047517247
36	0xbca78eba	-0.0204538
37	0x3d1cf4e2	0.038319476
38	0xbb61bf18	-0.0034446176
39	0x3c68bcad	0.01420514
40	0x3c0c9d43	0.008582416
41	0xbd5b86d0	-0.053595364
42	0xbd59a0a7	-0.053131726
43	0xbd53b7aa	-0.051688828
44	0x3bd91312	0.006624588
45	0xbbacc32b	-0.0052722893
46	0xbdb967f5	-0.09053031
47	0x3d1baee2	0.038008578
48	0xbd1373a4	-0.035998955
49	0xba9c3127	-0.0011916504
50	0xbc7d911c	-0.015476491
51	0xbe59a364	-0.21253735
52	0x3ce558a2	0.027996365
53	0x3cd91d9e	0.02650338
54	0xbce455a8	-0.027872875
55	0xbcd322fc	-0.025773518
56	0xbc219db0	-0.009864256
57	0xbded6e93	-0.11593356
58	0xbc9bb81b	-0.019008687
59	0xbd437e6d	-0.04772799
60	0xbd9c2280	-0.07623768
61	0xbc8bd74d	-0.017070437
62	0xbdc9cf3d	-0.09853981
63	0xbc3967f7	-0.011316291
64	0xbd05bedd	-0.032652725
65	0xbda1fbcc	-0.079093546
66	0xbc870ad7	-0.016484661
67	0xbd25a24f	-0.040437993
68	0x3c2c4c72	0.010516273
69	0x3c74514f	0.014911964
70	0x3b9dfa16	0.0048210723
71	0xbce9658f	-0.02849081
72	0xbd7cb952	-0.061700173
73	0xbcfc1f3c	-0.030776612
74	0xbd7cdae7	-0.0617322
75	0xbd696c91	-0.056988303
76	0xbceb8d3a	-0.028753866
77	0xbd62e2b3	-0.05539198
78	0xbd0398df	-0.03212821
79	0x3bc82ded	0.0061089904
80	0xbd24ef56	-0.04026731
81	0xbccfceb1	-0.025367113
82	0xbd8205f4	-0.06348792
83	0xbce038ed	-0.027370894
84	0xbd29e1e3	-0.041475188
85	0xbd2a2d01	-0.041546825
86	0xbd6ad022	-0.057327397
87	0xbc989775	-0.018626908
88	0xbcae429f	-0.021272002
89	0xbd8a8545	-0.067637004
90	0xbb9fe176	-0.004879172
91	0xbd2965b6	-0.041356765
92	0xbd2a4099	-0.04156551
93	0x3a16b9b4	0.0005749718
94	0x3c92d6d6	0.017924707
95	0xbd0f22f2	-0.034945436
96	0x3bbadbfe	0.0057024946
97	0xbd1bc589	-0.03803018
98	0xbd533fe3	-0.0515746
99	0x3cf8ef9a	0.030387688
100	0xbcb5d84f	-0.02219787
101	0xbd0da109	-0.034577403
102	0xbdc8ec8f	-0.09810745
103	0xbcbe5213	-0.023232495
104	0xbd55d249	-0.052202497
105	0xbd664676	-0.05621954
106	0xbd788fdb	-0.060684066
107	0xbb266120	-0.002538748
108	0x3bcd6d7a	0.006269154
109	0xbc9a24ae	-0.018816318
110	0xbdf40857	-0.11915653
111	0xbd5fa251	-0.054598156
112	0xbc6d0768	-0.014467098
113	0xbcf5afab	-0.029990992
114	0xba504f5b	-0.0007946395
115	0xbdb0a5eb	-0.08625396
116	0xbcbda2d1	-0.023148926
117	0xbdcbca36	-0.09950678
118	0x3c2e4ff2	0.010639178
119	0x3bf3b855	0.0074377456
120	0xbd1e1740	-0.03859639
121	0xbca1ef2e	-0.01976737
122	0xbcd2590f	-0.025677232
123	0xbd2ee8ea	-0.042702593
124	0x3d361758	0.044455856
125	0xbb09997e	-0.002099603
126	0xbcb9bc61	-0.022672834
127	0xbd9d90f1	-0.07693661
128	0x3d250faa	0.04029814
129	0xbc3c5da0	-0.011496931
130	0xbd33fa65	-0.043939967
131	0xbd21d6de	-0.039511554
132	0x3ca4750c	0.020075344
133	0x3d80c649	0.0628782
134	0xbd9d80ba	-0.07690568
135	0xbd0a58ff	-0.03377628
136	0xbd10f4f0	-0.03538984
137	0xbd8cd408	-0.06876379
138	0xbd6857d1	-0.056724373
139	0xbdae2fd5	-0.08505217
140	0xbd93c524	-0.07215336
141	0xbd8f418f	-0.06994926
142	0xbc8504e2	-0.01623768
143	0xbd51790b	-0.051140826
144	0xbcc956ee	-0.024577584
145	0x3c9c80fe	0.019104477
146	0xbda07316	-0.07834451
147	0xbcd560c7	-0.026047124
148	0xbda434fa	-0.08017917
149	0xbd26eeff	-0.04075527
150	0xbd515da0	-0.05111468
151	0xbdb689cd	-0.08913002
152	0x3d1d25f3	0.03836627
153	0xbc9abd4a	-0.018889088
154	0xbd828ddc	-0.06374714
155	0xbcd6f230	-0.02623853
156	0x3cbcb337	0.023034675
157	0x3bd14d8a	0.006387417
158	0x3c565cbd	0.013083634
159	0xbbec3ddf	-0.007209524
160	0x3c68418d	0.014175785
161	0xbd6fdbec	-0.058559343
162	0xbd354a65	-0.0442604
163	0xbc71e5c9	-0.014764258
164	0xbd44d0d3	-0.048050713
165	0xbbfec81b	-0.0077753193
166	0x3c611ad7	0.013739309
167	0xbba52d3a	-0.005040792
168	0x3c3aff62	0.011413427
169	0xbda8b74a	-0.082380846
170	0x3bd2c96b	0.0064327023
171	0xbca94797	-0.02066402
172	0xbd981aca	-0.074269846
173	0xbd0d39b8	-0.034478873
174	0xbc320906	-0.010866409
175	0xbd8ca4ae	-0.06867348
176	0xbcbce5ca	-0.02305879
177	0xbc7a373d	-0.015271959
178	0x3b6f9d90	0.003656242
179	0xbcf2836b	-0.02960368
180	0x3c83499b	0.016026309
181	0x39360b90	0.0001736118
182	0x3cf2c913	0.029636895
183	0xbd8acacf	-0.06776964
184	0xbce0f0fd	-0.027458662
185	0xbd45aebb	-0.04826234
186	0xbd430789	-0.047614608
187	0x3c0c7325	0.0085723745
188	0xbdbf747b	-0.09348389
189	0x3cdc98be	0.026928302
190	0xbd34ac36	-0.044109546
191	0xbd2367b1	-0.03989381
192	0xbc816f36	-0.0158001
193	0xbd48d5c7	-0.049032
194	0xbc2e1855	-0.010625918
195	0xbda27c4e	-0.079338655
196	0x3c2d3a3a	0.010572964
197	0xbcaa42f3	-0.020783877
198	0xbcf471ee	-0.029839482
199	0xbda60028	-0.081054986
200	0xbd674dd0	-0.056470692
201	0x3c0ffd34	0.008788396
202	0xbc88ace5	-0.016684005
203	0xbd2aa63a	-0.041662432
204	0xbd381524	-0.044942036
205	0xbc9b37f4	-0.018947579
206	0xbd4824e6	-0.048863314
207	0x3b930e3c	0.004487781
208	0xbdda8a8f	-0.10670959
209	0xbd37bddc	-0.0448588
210	0xbd87dd06	-0.06633954
211	0xbd51bb7f	-0.0512042
212	0x3c2d3fb5	0.010574271
213	0x3b74ef6f	0.003737416
214	0x3d83070a	0.06397827
215	0xbcd7cf45	-0.026343951
216	0xbe10539f	-0.14094399
217	0xbd3df8f4	-0.04638
218	0x3d0a37e8	0.033744723
219	0xbd52a2be	-0.051424734
220	0xbd389d58	-0.04507193
221	0xbcf1ffd7	-0.02954094
222	0x3c04250b	0.008065472
223	0xbd381d82	-0.044950016
224	0xbcdeaf09	-0.027183073
225	0xbd050493	-0.032475065
226	0xbd197304	-0.037463203
227	0xbc16670c	-0.009179842
228	0xbd0f29ab	-0.034951847
229	0xbd43d0bf	-0.047806498
230	0xbd880cb6	-0.066430494
231	0xbd3f4adb	-0.046702247
232	0xbd943752	-0.07237114
233	0x3b406647	0.0029357837
234	0xbdc4aec9	-0.0960365
235	0x3d5aca6e	0.05341571
236	0xbda3a902	-0.0799122
237	0xbd21931a	-0.039446928
238	0xbd3f5410	-0.046711028
239	0xbbab0f02	-0.005220295
240	0xbd854524	-0.06507328
241	0x3cd55839	0.026043044
242	0xbda96f42	-0.08273174
243	0x3c8e44e9	0.017366843
244	0xbd4157b3	-0.047202777
245	0xbb916aa5	-0.004437762
246	0xbd0580ae	-0.03259342
247	0x3cdd7dea	0.02703758
248	0x3c3a2073	0.011360276
249	0xbcccdff5	-0.025009135
250	0xbd04fc71	-0.03246731
251	0xbb0ef96f	-0.0021816154
252	0xbc87e647	-0.016589297
253	0xbcf989ae	-0.030461159
254	0xbd550a3b	-0.05201171
255	0x3cd9a341	0.026567103

weight f4 [128, 256]
0	0x3b9eab85	0.004842224
1	0x3da73908	0.08165175
2	0xbb00ae86	-0.0019635274
3	0xbd66edcc	-0.056379125
4	0x3d5c821e	0.053835027
5	0x3d2626b0	0.04056424
6	0x3ccd6a64	0.025075145
7	0x3ce3f792	0.027828012
8	0x3d7a0239	0.061037276
9	0x3e02439d	0.12721105
10	0xbd192c16	-0.03739556
11	0xbc8caf26	-0.017173361
12	0x3d804b61	0.062643774
13	0xbd094d1c	-0.033520803
14	0xbd377256	-0.044786774
15	0xbc5e3093	-0.013561386
16	0xbcdcb806	-0.026943218
17	0x3c66679e	0.01406279
18	0x3d8cae00	0.06869125
19	0xb8af7c10	-8.367759e-05
20	0x3dac8bbf	0.08425092
21	0x3dc51893	0.09623828
22	0xbd7d55a7	-0.061849263
23	0xbc18ff52	-0.009338217
24	0xbc8c1c0a	-0.017103214
25	0x3dc5b8f5	0.096544184
26	0x3da5bb41	0.080923565
27	0xbdc503ae	-0.096198425
28	0x3cdc8beb	0.026922187
29	0xbe8fdf7b	-0.2810019
30	0x3d8cbf1d	0.068723895
31	0x3def04bb	0.11670824
32	0xbd05c876	-0.032661878
33	0xbd06a5b0	-0.032872856
34	0xbca29b61	-0.019849481
35	0x3b8e1921	0.0043364917
36	0xbb8f6801	-0.004376412
37	0xbdc7e1f1	-0.09759892
38	0x3a1baaf5	0.00059382553
39	0x3cb5859e	0.02215844
40	0xbd59f077	-0.05320784
41	0x3d77e011	0.06051642
42	0x3bd2174a	0.0064114677
43	0x3bc0ad60	0.005880043
44	0xbde1bb63	-0.11022069
45	0x3d24cab4	0.040232375
46	0xbd50a04e	-0.05093413
47	0x3c46ceac	0.012134235
48	0xbd87226f	-0.065983646
49	0xbd594c97	-0.053051557
50	0x3db1a5bb	0.08674189
51	0xbd2a56ff	-0.041586872
52	0xbbd1125b	-0.006380362
53	0xbd0a1e68	-0.033720404
54	0x3cdfa038	0.027298078
55	0x3aecedf7	0.001807629
56	0x3dac095d	0.084002234
57	0xbdb93340	-0.09042978
58	0xbd7d92fa	-0.061907746
59	0x3c645de3	0.0139384
60	0x3d62adda	0.05534158
61	0x3bb59eb0	0.0055425987
62	0xbc908008	-0.017639175
63	0xbc350b7f	-0.011050104
64	0xbc12150b	-0.00891615
65	0xbe2aa2c2	-0.1666365
66	0x3caee0bd	0.021347398
67	0x3db24c30	0.08705938
68	0xbca1923e	-0.019723054
69	0x3ce3e562	0.02781934
70	0xbd1b061c	-0.037847623
71	0x3d897e6c	0.06713566
72	0xbd1b1ea2	-0.03787101
73	0xbd44632a	-0.047946133
74	0xbced2490	-0.028948098
75	0xbd434cc1	-0.04768062
76	0x3d59ac05	0.053142566
77	0xbd9a4bbd	-0.07533977
78	0x3dff797c	0.12474343
79	0x3dc44eb6	0.095853254
80	0x3d3a49e5	0.045480628
81	0xbd1a7795	-0.0377117
82	0xbd13294f	-0.035928067
83	0xbe2acca6	-0.1667963
84	0x3d561542	0.052266367
85	0x3dcc39bf	0.09971952
86	0x3d301fae	0.042998962
87	0xbc4e313e	-0.012584982
88	0xbbfe1fad	-0.007755241
89	0x3d60d23e	0.054888003
90	0x3ddb5fc1	0.10711623
91	0xba8b9975	-0.0010650592
92	0xbce8187d	-0.02833199
93	0x3c86e834	0.016468145
94	0xbc739bac	-0.014868658
95	0x3c98740f	0.018610029
96	0x3d0925c8	0.033483297
97	0xbe3add9d	-0.18248601
98	0xbdad4a92	-0.08461489
99	0x3dcb5304	0.09927943
100	0xbd15b68a	-0.036551036
101	0x3d828a02	0.06373979
102	0xbd931462	-0.07181622
103	0xbd29bfe8	-0.04144278
104	0x3ddb3065	0.1070259
105	0x3d53b32d	0.051684547
106	0xbe1dc3f4	-0.15406781
107	0xbc77bbe3	-0.015120479
108	0x3d33089d	0.043709386
109	0x3db6e9a1	0.0893128
110	0xbd1ad775	-0.037803132
111	0x3d9dc6a9	0.07703907
112	0xbdb1f177	-0.08688634
113	0x3dac97f0	0.08427417
114	0x3d000fa2	0.03126491
115	0xbd3daad2	-0.046305485
116	0xbd8f6994	-0.07002559
117	0xb9b3c9d5	-0.00034291917
118	0x3cc43c12	0.023954425
119	0x3d102bf9	0.035198186
120	0x3c267aef	0.010161146
121	0xbe454199	-0.19263305
122	0xbd1d85df	-0.038457748
123	0xbdbb0b40	-0.09133005
124	0xbb2712db	-0.0025493416
125	0x3da935f8	0.08262247
126	0xbd0e87f7	-0.034797635
127	0x3d34700a	0.04405216
128	0xbd1f9606	-0.038961433
129	0xbd12ec12	-0.035869665
130	0xbba5337c	-0.005041538
131	0x3de1cf9b	0.11025926
132	0xbb5b3f6f	-0.0033454557
133	0x3d1adb79	0.03780696
134	0xbce075e9	-0.027399974
135	0xbd70223c	-0.0586264
136	0xbd701683	-0.05861522
137	0x3c0f29f8	0.0087380335
138	0x3c940981	0.018070938
139	0xbbf71906	-0.007540825
140	0x3bdb0a14	0.006684551
141	0xbd1f8a27	-0.03895011
142	0x3cd7832f	0.02630767
143	0xbd4f8af0	-0.05066961
144	0xbba8b38a	-0.005148356
145	0x3d623651	0.05522758
146	0x3c856c73	0.016287064
147	0x3c27a35b	0.010231818
148	0xbd948873	-0.07252588
149	0xbdaa2614	-0.08308044
150	0xbd708f3b	-0.058730345
151	0x3dd43c99	0.103631206
152	0x3d8ceda8	0.06881267
153	0x3d0f294d	0.034951497
154	0xbd9b6b95	-0.07588879
155	0xbd8ea09b	-0.06964227
156	0x3c4ce46b	0.012505631
157	0x3d2606ac	0.040533707
158	0x3c98774e	0.018611576
159	0x3d9e5333	0.07730713
160	0xbd98b1e9	-0.07455809
161	0xbe059a62	-0.13047174
162	0x3d8f8bb9	0.07009072
163	0x3db86ae4	0.09004763
164	0xbd6cf502	-0.057850845
165	0x3afd72d0	0.0019336585
166	0x3d6738c3	0.056450617
167	0x3db8f99c	0.09031984
168	0xbd18eaf8	-0.03733346
169	0x3c784b30	0.015154645
170	0xbd2d178b	-0.04225878
171	0x3c6b33ab	0.01435558
172	0x3cf5c1aa	0.029999573
173	0xbdb150c6	-0.086579844
174	0xbd95355b	-0.072855674
175	0x3d82157d	0.06351755
176	0xbcd09301	-0.025460722
177	0xbc8da5f8	-0.017291054
178	0x3d07eae2	0.033182986
179	0x3bdeb775	0.006796772
180	0xbc4abbbc	-0.012373861
181	0xbc0a8baf	-0.008456155
182	0x3d4f0148	0.05053833
183	0xbc89063f	-0.016726611
184	0x3d5953eb	0.053058546
185	0x3d929dd4	0.071590096
186	0xbdc7321f	-0.09726357
187	0xbcd731a9	-0.026268797
188	0x3db2f368	0.08737832
189	0xbd492ab7	-0.049113
190	0x3d658859	0.056038234
191	0x3b61636f	0.0034391542
192	0x3c67de7a	0.014152164
193	0x3da7c0eb	0.08191093
194	0x3d5bb46c	0.05363886
195	0xbde7d822	-0.11320521
196	0xbd369e17	-0.04458436
197	0x3cd4bc11	0.025968583
198	0xbda6ce14	-0.08144775
199	0xba9634c6	-0.001145982
200	0xbcbdd7cb	-0.023174187
201	0x3d004d6c	0.031323835
202	0x3d162f3e	0.036666147
203	0xbd631169	-0.055436525
204	0x3c9014ca	0.017588038
205	0xbd882d57	-0.06649273
206	0x3ddd22f9	0.10797686
207	0x3dd1524f	0.10220777
208	0xbd0c620b	-0.03427319
209	0x3ccdb401	0.025110247
210	0xbda65d1f	-0.0812323
211	0x3d13b8ea	0.03606502
212	0xbcace5f2	-0.02110574
213	0x3c2f5819	0.010702156
214	0x3d9a572f	0.0753616
215	0x3ce55a19	0.027997063
216	0x3cd96ce0	0.026541173
217	0xbd6e2442	-0.058140047
218	0x3b66417c	0.0035134247
219	0xbd26e676	-0.04074713
220	0x3c76ba6c	0.015059095
221	0x3d00d5a6	0.03145375
222	0xbc9be161	-0.019028367
223	0xbd867d36	-0.06566851
224	0x3d0fedac	0.03513877
225	0x3ca95a43	0.020672923
226	0xbc9bbf2c	-0.019012056
227	0x3c98fc8b	0.01867511
228	0xbd78e539	-0.06076548
229	0x3d27a4b7	0.04092857
230	0xbd92e9cf	-0.07173502
231	0xbdd1d009	-0.10244758
232	0xbdb2db9a	-0.08733292
233	0x3a23e99d	0.00062527676
234	0x3dc51d04	0.09624675
235	0xbda60c24	-0.081077844
236	0x3d1a7138	0.03770563
237	0xbdaebc3b	-0.08531996
238	0xbddf9553	-0.10917153
239	0x3cfda910	0.030964404
240	0x3bcf9168	0.0063344724
241	0x3d5e15af	0.054219898
242	0x3da7101a	0.08157368
243	0x3d3674b1	0.04454488
244	0xbd4d3bb3	-0.05010576
245	0x3bba6768	0.0056885965
246	0x3d945735	0.07243196
247	0x3d9af359	0.07565946
248	0xbe2cf44f	-0.16890071
249	0x3e09f80f	0.13473533
250	0x3d927bce	0.0715252
251	0xbd9a0e12	-0.07522215
252	0x3d3e4f35	0.046462256
253	0xbd00764e	-0.031362824
254	0xbd8dc193	-0.06921687
255	0x3d16462d	0.03668802

bias f4 [128]
0	0x3d7477a8	0.059684426
1	0x3db3323d	0.087498166
2	0xb9d305d5	-0.000402494
3	0xbdd089fa	-0.10182567
4	0x3cdb5f64	0.026778884
5	0xbd2aeb94	-0.04172857
6	0x3b88810d	0.0041657747
7	0x3d9e877f	0.077406876
8	0x3d84fffe	0.06494139
9	0x3d18638c	0.03720431
10	0x3b33ac81	0.0027416053
11	0x3bddd051	0.006769218
12	0x3d084539	0.03326914
13	0x3c880ec9	0.016608613
14	0xbcd2e9e4	-0.025746293
15	0xbd80fe5c	-0.06298515
16	0x3d849e5e	0.06475519
17	0xbc8da05f	-0.017288385
18	0xbc6685ad	-0.014069957
19	0xbb461286	-0.0030223443
20	0x3d1f020b	0.038820308
21	0xbe07c752	-0.13259628
22	0x3d5f860e	0.054571204
23	0x3c9a0650	0.018801838
24	0x3d725670	0.059164464
25	0xbcccaf7f	-0.024986027
26	0xbd7923f1	-0.060825292
27	0xbe19dff7	-0.15026842
28	0x3d9c7749	0.07639939
29	0xbbbe2e79	-0.00580388
30	0xbcd8e3ac	-0.02647575
31	0x3b9a5a7e	0.0047104945
32	0xbddf9238	-0.10916561
33	0xbde251d1	-0.110507615
34	0xbd93fd6d	-0.072260715
35	0x3d7ef9cd	0.062249947
36	0xbddd0706	-0.10792355
37	0xbd8a20a0	-0.06744504
38	0x3d5721f0	0.0525226
39	0x3db31e3a	0.08746
40	0xbd0a65e9	-0.033788595
41	0xbc80afe2	-0.015708867
42	0xbcf9e2ba	-0.03050362
43	0xbc6de15b	-0.014519061
44	0xbe28b9be	-0.16477105
45	0x3d0d8586	0.034551166
46	0xbc9931b9	-0.018700467
47	0xbdba95f6	-0.09110634
48	0x3d523db3	0.051328372
49	0xbc590a38	-0.013247065
50	0x3d7372c7	0.059435632
51	0x3c7f5f06	0.01558662
52	0x3d8861eb	0.06659301
53	0xbc9f8719	-0.0194736
54	0xbe12a70e	-0.14321539
55	0xbd66260b	-0.056188624
56	0xbbfc2502	-0.0076948414
57	0xbccb7554	-0.02483622
58	0xbd3a5fd1	-0.045501534
59	0x3d241ad2	0.04006464
60	0xbb885a8d	-0.004161185
61	0xbd7e30ed	-0.062058378
62	0x3d2a9dd3	0.04165442
63	0x3cdad487	0.026712669
64	0xbd4d28d5	-0.05008777
65	0x3d403c71	0.04693264
66	0xbcd4e9fa	-0.025990475
67	0xbcc0a5c9	-0.023516553
68	0xbdbc6d44	-0.09200528
69	0x3bd89ca1	0.0066104685
70	0x3d0b1f25	0.03396525
71	0xbcf77d30	-0.030211061
72	0xbdae5b55	-0.08513514
73	0x3b84f417	0.004057418
74	0x3cba5272	0.022744391
75	0xbdd10124	-0.10205296
76	0xbd2b4ae2	-0.04181946
77	0xbdf6cbad	-0.12050567
78	0xbda4ffa0	-0.08056569
79	0x3d952bba	0.07283731
80	0xbd2956ac	-0.041342422
81	0xbcf739c8	-0.03017892
82	0xbda3f1e3	-0.080051206
83	0x3d1db301	0.03850079
84	0xbc94b5b5	-0.01815305
85	0xbcf0f3d2	-0.029413138
86	0xbd04fdee	-0.03246873
87	0xbd29f315	-0.041491587
88	0xbdd2a623	-0.10285594
89	0xbd5d3a3a	-0.054010607
90	0x3dbf196d	0.093310215
91	0x3d346e5f	0.04405057
92	0xbd1d367c	-0.03838204
93	0xbcebc6b1	-0.028781267
94	0xbcfa10d6	-0.030525606
95	0xbd88fca0	-0.066888094
96	0xbd84cae8	-0.06484014
97	0x3c96f0b0	0.018425316
98	0x3d63b2f0	0.05559057
99	0xbb93ff84	-0.004516544
100	0xbd0b308f	-0.033981856
101	0xbd65af12	-0.056075163
102	0xbda048c7	-0.07826381
103	0xbd2b210e	-0.04177957
104	0xbdbe0d96	-0.09279935
105	0xbd40b0c2	-0.04704357
106	0xbca9aefe	-0.020713326
107	0x3dacfa17	0.08446138
108	0xbd45d4a5	-0.048298497
109	0xbd4fc21f	-0.050722238
110	0xbc0d21b1	-0.00861399
111	0x3d5e2225	0.05423178
112	0x3d112d2b	0.035443466
113	0xbc7d03af	-0.015442773
114	0xbbeb588e	-0.0071821874
115	0xbd0d0c2d	-0.03443544
116	0xbdda9dbb	-0.10674616
117	0xbcd6669e	-0.026171979
118	0xbe124ad2	-0.14286354
119	0xbd1334ed	-0.035939146
120	0x3d5cf591	0.053945128
121	0x3cbac5c3	0.022799378
122	0xbd876c38	-0.06612438
123	0xbc050993	-0.008119958
124	0xbca44b0b	-0.020055315
125	0xbd2336a4	-0.03984703
126	0xbd88b4b7	-0.066750936
127	0x3c9e0f57	0.019294424

weight f4 [12, 128]
0	0xbc317fa3	-0.010833654
1	0x3d51af15	0.05119236
2	0xbca6243c	-0.02028095
3	0x3d9ccee3	0.07656648
4	0x3ce75b63	0.028241819
5	0xbc6e31b8	-0.014538221
6	0xbd605f12	-0.054778166
7	0x3ce09a12	0.027417216
8	0xbd8c95fe	-0.06864546
9	0x3d762ca8	0.06010118
10	0xbca3c0a4	-0.01998932
11	0x3c117bee	0.008879645
12	0xbbef40d8	-0.007301431
13	0x3b61e46b	0.0034468423
14	0x3d0c1740	0.03420186
15	0xbd438848	-0.04773739
16	0x3c14b511	0.009076373
17	0xbc859cef	-0.016310183
18	0x3bbf3ad4	0.0058358703
19	0xbcddd38d	-0.027078414
20	0x3ce62c60	0.028097332
21	0x3ca953ef	0.020669905
22	0x3dcbcc51	0.0995108
23	0x3cc36ac5	0.023854623
24	0xbd88692b	-0.06660684
25	0xbb747af3	-0.0037304729
26	0x3c4f2c15	0.012644787
27	0xbcff866b	-0.031192025
28	0xbd1a19ac	-0.03762214
29	0x3ced20a4	0.028946228
30	0xbca604f4	-0.020266034
31	0xbc410388	-0.011780627
32	0xbd3b9314	-0.04579456
33	0xbd941352	-0.072302476
34	0x3b450d6e	0.003006782
35	0x3c45da20	0.012075931
36	0xbd3faef7	-0.04679772
37	0x38d93d18	0.00010358746
38	0xbcc8df1f	-0.024520455
39	0xbd96ca5d	-0.073628165
40	0x3d8efc55	0.06981722
41	0xbc0b1b55	-0.008490403
42	0xbcb1c3dd	-0.02169984
43	0xbd7c9302	-0.061663635
44	0x3c74e469	0.014947035
45	0x3ce58620	0.028018057
46	0xbd85edfc	-0.065395325
47	0x3dbabd5b	0.09118148
48	0xbc303023	-0.010753664
49	0xbca5ecb2	-0.020254467
50	0x3b40ab10	0.0029398836
51	0x3be3b9f8	0.0069496594
52	0x3b5ab7f7	0.0033373812
53	0x3cb62685	0.022235164
54	0xbd142bf8	-0.036174744
55	0x3c3444c4	0.011002723
56	0x3bcdbc09	0.006278519
57	0x3b27d6c2	0.0025610183
58	0xbc267657	-0.01016005
59	0x3d01cd50	0.031689942
60	0x3c0f2dfb	0.00873899
61	0xbd39a66c	-0.045324728
62	0xbd61a76f	-0.055091318
63	0x3abee946	0.001456537
64	0x3d606b4e	0.054789834
65	0x3dced5db	0.100993834
66	0x3d31580d	0.043296862
67	0x3d3fd3d5	0.04683288
68	0xbcd1d202	-0.025612835
69	0xbc24754f	-0.010037734
70	0x3d3a795c	0.045525894
71	0x3b8c0b91	0.0042738398
72	0xbdd672a5	-0.104710855
73	0xbd33b44d	-0.04387312
74	0x3d861043	0.065460704
75	0x3dd52e79	0.104092546
76	0x3c7111ce	0.014713718
77	0x3c559129	0.013035097
78	0xbd706b4d	-0.05869608
79	0xbc8ac9d8	-0.01694195
80	0x3d25d5f0	0.04048723
81	0x3d1084fd	0.035283078
82	0xbc7d9331	-0.015476988
83	0xbbe7458c	-0.007057851
84	0xba712de7	-0.00092002604
85	0x3cc3d0a2	0.023903195
86	0xbc457b08	-0.012053259
87	0xbc81fea2	-0.015868489
88	0x3c3b3b82	0.011427762
89	0x3c177601	0.009244443
90	0xbd993734	-0.07481232
91	0xbd13e04f	-0.03610259
92	0x3d87db6a	0.06633647
93	0x3d32d040	0.043655634
94	0x3cb8e23e	0.022568818
95	0x3cf3e80a	0.02977373
96	0x3bfec6cb	0.007775163
97	0xbcf73f14	-0.030181445
98	0x3d9a65ef	0.075389735
99	0x3d898826	0.067154214
100	0x3d9df205	0.07712177
101	0xbdaafda7	-0.083491616
102	0xbc85456a	-0.01626845
103	0xbbdc9561	-0.0067316745
104	0x3c2fe287	0.010735161
105	0x3c8fb982	0.017544512
106	0x3c76586f	0.015035733
107	0xbc8bb9d9	-0.017056393
108	0x3d23e865	0.04001655
109	0x3c496ccf	0.012294008
110	0xbc3ffa05	-0.011717324
111	0x3d0061bc	0.031343207
112	0xbd55a854	-0.052162483
113	0x38f99255	0.00011900502
114	0x3db50a1f	0.08839821
115	0xbc563415	-0.013073941
116	0x3b9bf307	0.0047591957
117	0xbbed44d8	-0.007240873
118	0xbe05e9e3	-0.13077502
119	0xbc9e2d5f	-0.019308744
120	0xbbb20e78	-0.0054338537
121	0x3c8f4f7e	0.01749396
122	0xbc8f138c	-0.017465375
123	0xbc5a0655	-0.013307174
124	0x3d10800e	0.035278372
125	0x3d43c3be	0.047794096
126	0x3ce6bfa6	0.028167557
127	0xbbdc24e5	-0.0067182654
128	0x3daa5701	0.08317376
129	0xbdd9ffb7	-0.10644477
130	0xbc094d12	-0.008380191
131	0x3dacbf87	0.084349684
132	0x3d754e64	0.059889212
133	0x3c3ea98f	0.011637106
134	0x3c00b946	0.007856673
135	0xbdb75eae	-0.089536056
136	0xbd9a66c2	-0.07539131
137	0x3d456aa8	0.04819742
138	0x3d8807cd	0.06642113
139	0xbdcf838f	-0.10132515
140	0xbd02ef36	-0.03196641
141	0x3a7b68a3	0.0009590482
142	0xbc377353	-0.011196929
143	0xbb01ad94	-0.0019787299
144	0xbda919fb	-0.082569085
145	0xbc22a202	-0.009926321
146	0x3c90d2c5	0.017678628
147	0xbe197a56	-0.14988074
148	0xbd0afaa3	-0.033930432
149	0x3d44bde6	0.048032664
150	0x3d93e823	0.07222011
151	0x3d31b4c2	0.043385275
152	0xbd165661	-0.03670347
153	0x3ca5ece6	0.020254564
154	0x3e0ddc06	0.13853464
155	0xbb425a4c	-0.0029655872
156	0xbcab9770	-0.020946234
157	0xbbcd6c17	-0.006268989
158	0xbd2c0f96	-0.04200705
159	0xbc426b49	-0.011866399
160	0x3c32258e	0.010873212
161	0x3debf06f	0.115204684
162	0x3cab3b68	0.02090235
163	0x3ba58347	0.00505105
164	0x3d2515a2	0.040303834
165	0xbd47a13f	-0.04873776
166	0xbcaafcb2	-0.020872448
167	0x3d188f06	0.037245773
168	0x3dbc4f06	0.0919476
169	0xbcff3d3a	-0.031157125
170	0x3cf17790	0.029475957
171	0xbce22529	-0.02760561
172	0x3cc68bbe	0.024236556
173	0x3caa611d	0.02079826
174	0x3d802153	0.06256356
175	0xbc4bec7f	-0.012446522
176	0xbcb327b0	-0.02186951
177	0xbd401606	-0.046896003
178	0x3c138995	0.00900497
179	0x3cb9a922	0.022663657
180	0xbd3a2265	-0.045442957
181	0x3c195355	0.009358247
182	0x3d20f90b	0.039300006
183	0xbe12d042	-0.14337257
184	0x3c90ddac	0.017683826
185	0x3ca4fbd0	0.020139605
186	0x3da38a88	0.07985407
187	0x3d1fdcd5	0.03902896
188	0xbcafcd7b	-0.021460285
189	0xbd5f258b	-0.054479163
190	0xbcd22ee9	-0.025657134
191	0x3cee0116	0.029053252
192	0x3daed12b	0.085359894
193	0x3e08b64b	0.13350789
194	0xbd6420d3	-0.055695366
195	0x3b998b55	0.004685799
196	0x3d88e5cc	0.06684455
197	0x3cc4e5aa	0.024035294
198	0x3d483bb4	0.048885062
199	0xbe2598d5	-0.16171582
200	0x3d954aa2	0.07289626
201	0xbc721805	-0.0147762345
202	0x3d82a127	0.063783936
203	0xbd931e75	-0.071835436
204	0xbe162fb2	-0.14666632
205	0xbd639dd9	-0.055570457
206	0xbc44763a	-0.011991078
207	0xbd19ddad	-0.037564922
208	0x3d023dc5	0.03179719
209	0x3deb0bfa	0.11476894
210	0x398e20a8	0.0002710868
211	0x3cb8a82a	0.022541124
212	0x3da2bac1	0.07945777
213	0xbd19e5f6	-0.037572823
214	0x3d06cacd	0.03290825
215	0xbd8d1e3d	-0.06890533
216	0x3dae26bc	0.08503482
217	0x3d0a0f8c	0.033706233
218	0xbca5f9c5	-0.020260701
219	0xbbdee7f4	-0.0068025533
220	0xbc46c95b	-0.012132968
221	0xbd2f7ab8	-0.042841643
222	0xbcaf21ca	-0.021378417
223	0x3d7a62aa	0.06112925
224	0xbd29db5f	-0.041468974
225	0x3b0e57fd	0.0021719926
226	0x3dc917a8	0.09818965
227	0x3d358a12	0.044321127
228	0xbda67f36	-0.08129732
229	0x3d496afa	0.049174286
230	0x3db81947	0.08989196
231	0xbd03f355	-0.03221448
232	0x3ccc022d	0.024903381
233	0xbcb980a9	-0.022644358
234	0x3cbcee4f	0.023062853
235	0xbdaec95b	-0.08534499
236	0xbd18666a	-0.037207045
237	0x3cea16ee	0.028575387
238	0xbd176805	-0.036964435
239	0xbd789404	-0.060688034
240	0x3d8fe20b	0.07025536
241	0xbc963070	-0.018333644
242	0xbd5daaed	-0.054118086
243	0x3c54b3c2	0.012982311
244	0x3dc2c5b6	0.095103666
245	0xbcf3da60	-0.029767215
246	0xbcec3bec	-0.028837167
247	0xbc620b80	-0.013796687
248	0xbb471390	-0.003037665
249	0xbe082d14	-0.13298446
250	0x3c8c51b0	0.017128795
251	0xbd6359c0	-0.055505514
252	0xbdc1a5f5	-0.09455482
253	0xbc23adb2	-0.009990143
254	0xbd74a693	-0.05972917
255	0x3d40662b	0.046972435

bias f4 [12]
0	0x3ca35dc5	0.019942174
1	0xbe03d879	-0.12875547
2	0x3c639070	0.013889417
3	0xbd9e4007	-0.07727056
4	0xbd4145d0	-0.04718572
5	0x3cc7dc79	0.024397122
6	0xbd424b75	-0.047435243
7	0xbc11c4a0	-0.008896977
8	0x3da284cd	0.07935486
9	0xbce5e18e	-0.028061654
10	0xbd51ba71	-0.051203195
11	0x3d560255	0.052248318
